<?xml version="1.0"?>
<net name="frozen_model" version="6" batch="1">
	<layers>
		<layer name="input_1" type="Input" precision="FP32" id="0">
			<output>
				<port id="0" precision="FP32">
					<dim>1</dim>
					<dim>3</dim>
					<dim>64</dim>
					<dim>64</dim>
				</port>
			</output>
		</layer>
		<layer name="Conv1/Conv2D" type="Convolution" precision="FP32" id="1">
			<data dilations="1,1" group="1" kernel="3,3" output="32" pads_begin="0,0" pads_end="1,1" quantization_level="I8" strides="2,2" />
			<input>
				<port id="0">
					<dim>1</dim>
					<dim>3</dim>
					<dim>64</dim>
					<dim>64</dim>
				</port>
			</input>
			<output>
				<port id="1" precision="FP32">
					<dim>1</dim>
					<dim>32</dim>
					<dim>32</dim>
					<dim>32</dim>
				</port>
			</output>
			<blobs>
				<biases offset="0" size="128" />
				<weights offset="128" size="3456" />
			</blobs>
		</layer>
		<layer name="Conv1_relu/Relu6" type="Clamp" precision="FP32" id="2">
			<data max="6.000000" min="0.000000" />
			<input>
				<port id="0">
					<dim>1</dim>
					<dim>32</dim>
					<dim>32</dim>
					<dim>32</dim>
				</port>
			</input>
			<output>
				<port id="1" precision="FP32">
					<dim>1</dim>
					<dim>32</dim>
					<dim>32</dim>
					<dim>32</dim>
				</port>
			</output>
		</layer>
		<layer name="expanded_conv_depthwise/depthwise" type="Convolution" precision="FP32" id="3">
			<data auto_pad="same_upper" dilations="1,1" group="32" kernel="3,3" output="32" pads_begin="1,1" pads_end="1,1" quantization_level="I8" strides="1,1" />
			<input>
				<port id="0">
					<dim>1</dim>
					<dim>32</dim>
					<dim>32</dim>
					<dim>32</dim>
				</port>
			</input>
			<output>
				<port id="1" precision="FP32">
					<dim>1</dim>
					<dim>32</dim>
					<dim>32</dim>
					<dim>32</dim>
				</port>
			</output>
			<blobs>
				<biases offset="3584" size="128" />
				<weights offset="3712" size="1152" />
			</blobs>
		</layer>
		<layer name="expanded_conv_depthwise_relu/Relu6" type="Clamp" precision="FP32" id="4">
			<data max="6.000000" min="0.000000" />
			<input>
				<port id="0">
					<dim>1</dim>
					<dim>32</dim>
					<dim>32</dim>
					<dim>32</dim>
				</port>
			</input>
			<output>
				<port id="1" precision="FP32">
					<dim>1</dim>
					<dim>32</dim>
					<dim>32</dim>
					<dim>32</dim>
				</port>
			</output>
		</layer>
		<layer name="expanded_conv_project/Conv2D" type="Convolution" precision="FP32" id="5">
			<data auto_pad="same_upper" dilations="1,1" group="1" kernel="1,1" output="16" pads_begin="0,0" pads_end="0,0" quantization_level="I8" strides="1,1" />
			<input>
				<port id="0">
					<dim>1</dim>
					<dim>32</dim>
					<dim>32</dim>
					<dim>32</dim>
				</port>
			</input>
			<output>
				<port id="1" precision="FP32">
					<dim>1</dim>
					<dim>16</dim>
					<dim>32</dim>
					<dim>32</dim>
				</port>
			</output>
			<blobs>
				<biases offset="4864" size="64" />
				<weights offset="4928" size="2048" />
			</blobs>
		</layer>
		<layer name="block_1_expand/Conv2D" type="Convolution" precision="FP32" id="6">
			<data auto_pad="same_upper" dilations="1,1" group="1" kernel="1,1" output="96" pads_begin="0,0" pads_end="0,0" quantization_level="I8" strides="1,1" />
			<input>
				<port id="0">
					<dim>1</dim>
					<dim>16</dim>
					<dim>32</dim>
					<dim>32</dim>
				</port>
			</input>
			<output>
				<port id="1" precision="FP32">
					<dim>1</dim>
					<dim>96</dim>
					<dim>32</dim>
					<dim>32</dim>
				</port>
			</output>
			<blobs>
				<biases offset="6976" size="384" />
				<weights offset="7360" size="6144" />
			</blobs>
		</layer>
		<layer name="block_1_expand_relu/Relu6" type="Clamp" precision="FP32" id="7">
			<data max="6.000000" min="0.000000" />
			<input>
				<port id="0">
					<dim>1</dim>
					<dim>96</dim>
					<dim>32</dim>
					<dim>32</dim>
				</port>
			</input>
			<output>
				<port id="1" precision="FP32">
					<dim>1</dim>
					<dim>96</dim>
					<dim>32</dim>
					<dim>32</dim>
				</port>
			</output>
		</layer>
		<layer name="block_1_depthwise/depthwise" type="Convolution" precision="FP32" id="8">
			<data dilations="1,1" group="96" kernel="3,3" output="96" pads_begin="0,0" pads_end="1,1" quantization_level="I8" strides="2,2" />
			<input>
				<port id="0">
					<dim>1</dim>
					<dim>96</dim>
					<dim>32</dim>
					<dim>32</dim>
				</port>
			</input>
			<output>
				<port id="1" precision="FP32">
					<dim>1</dim>
					<dim>96</dim>
					<dim>16</dim>
					<dim>16</dim>
				</port>
			</output>
			<blobs>
				<biases offset="13504" size="384" />
				<weights offset="13888" size="3456" />
			</blobs>
		</layer>
		<layer name="block_1_depthwise_relu/Relu6" type="Clamp" precision="FP32" id="9">
			<data max="6.000000" min="0.000000" />
			<input>
				<port id="0">
					<dim>1</dim>
					<dim>96</dim>
					<dim>16</dim>
					<dim>16</dim>
				</port>
			</input>
			<output>
				<port id="1" precision="FP32">
					<dim>1</dim>
					<dim>96</dim>
					<dim>16</dim>
					<dim>16</dim>
				</port>
			</output>
		</layer>
		<layer name="block_1_project/Conv2D" type="Convolution" precision="FP32" id="10">
			<data auto_pad="same_upper" dilations="1,1" group="1" kernel="1,1" output="24" pads_begin="0,0" pads_end="0,0" quantization_level="I8" strides="1,1" />
			<input>
				<port id="0">
					<dim>1</dim>
					<dim>96</dim>
					<dim>16</dim>
					<dim>16</dim>
				</port>
			</input>
			<output>
				<port id="1" precision="FP32">
					<dim>1</dim>
					<dim>24</dim>
					<dim>16</dim>
					<dim>16</dim>
				</port>
			</output>
			<blobs>
				<biases offset="17344" size="96" />
				<weights offset="17440" size="9216" />
			</blobs>
		</layer>
		<layer name="block_2_expand/Conv2D" type="Convolution" precision="FP32" id="11">
			<data auto_pad="same_upper" dilations="1,1" group="1" kernel="1,1" output="144" pads_begin="0,0" pads_end="0,0" quantization_level="I8" strides="1,1" />
			<input>
				<port id="0">
					<dim>1</dim>
					<dim>24</dim>
					<dim>16</dim>
					<dim>16</dim>
				</port>
			</input>
			<output>
				<port id="1" precision="FP32">
					<dim>1</dim>
					<dim>144</dim>
					<dim>16</dim>
					<dim>16</dim>
				</port>
			</output>
			<blobs>
				<biases offset="26656" size="576" />
				<weights offset="27232" size="13824" />
			</blobs>
		</layer>
		<layer name="block_2_expand_relu/Relu6" type="Clamp" precision="FP32" id="12">
			<data max="6.000000" min="0.000000" />
			<input>
				<port id="0">
					<dim>1</dim>
					<dim>144</dim>
					<dim>16</dim>
					<dim>16</dim>
				</port>
			</input>
			<output>
				<port id="1" precision="FP32">
					<dim>1</dim>
					<dim>144</dim>
					<dim>16</dim>
					<dim>16</dim>
				</port>
			</output>
		</layer>
		<layer name="block_2_depthwise/depthwise" type="Convolution" precision="FP32" id="13">
			<data auto_pad="same_upper" dilations="1,1" group="144" kernel="3,3" output="144" pads_begin="1,1" pads_end="1,1" quantization_level="I8" strides="1,1" />
			<input>
				<port id="0">
					<dim>1</dim>
					<dim>144</dim>
					<dim>16</dim>
					<dim>16</dim>
				</port>
			</input>
			<output>
				<port id="1" precision="FP32">
					<dim>1</dim>
					<dim>144</dim>
					<dim>16</dim>
					<dim>16</dim>
				</port>
			</output>
			<blobs>
				<biases offset="41056" size="576" />
				<weights offset="41632" size="5184" />
			</blobs>
		</layer>
		<layer name="block_2_depthwise_relu/Relu6" type="Clamp" precision="FP32" id="14">
			<data max="6.000000" min="0.000000" />
			<input>
				<port id="0">
					<dim>1</dim>
					<dim>144</dim>
					<dim>16</dim>
					<dim>16</dim>
				</port>
			</input>
			<output>
				<port id="1" precision="FP32">
					<dim>1</dim>
					<dim>144</dim>
					<dim>16</dim>
					<dim>16</dim>
				</port>
			</output>
		</layer>
		<layer name="block_2_project/Conv2D" type="Convolution" precision="FP32" id="15">
			<data auto_pad="same_upper" dilations="1,1" group="1" kernel="1,1" output="24" pads_begin="0,0" pads_end="0,0" quantization_level="I8" strides="1,1" />
			<input>
				<port id="0">
					<dim>1</dim>
					<dim>144</dim>
					<dim>16</dim>
					<dim>16</dim>
				</port>
			</input>
			<output>
				<port id="1" precision="FP32">
					<dim>1</dim>
					<dim>24</dim>
					<dim>16</dim>
					<dim>16</dim>
				</port>
			</output>
			<blobs>
				<biases offset="46816" size="96" />
				<weights offset="46912" size="13824" />
			</blobs>
		</layer>
		<layer name="block_2_add/add" type="Eltwise" precision="FP32" id="16">
			<data operation="sum" />
			<input>
				<port id="0">
					<dim>1</dim>
					<dim>24</dim>
					<dim>16</dim>
					<dim>16</dim>
				</port>
				<port id="1">
					<dim>1</dim>
					<dim>24</dim>
					<dim>16</dim>
					<dim>16</dim>
				</port>
			</input>
			<output>
				<port id="2" precision="FP32">
					<dim>1</dim>
					<dim>24</dim>
					<dim>16</dim>
					<dim>16</dim>
				</port>
			</output>
		</layer>
		<layer name="block_3_expand/Conv2D" type="Convolution" precision="FP32" id="17">
			<data auto_pad="same_upper" dilations="1,1" group="1" kernel="1,1" output="144" pads_begin="0,0" pads_end="0,0" quantization_level="I8" strides="1,1" />
			<input>
				<port id="0">
					<dim>1</dim>
					<dim>24</dim>
					<dim>16</dim>
					<dim>16</dim>
				</port>
			</input>
			<output>
				<port id="1" precision="FP32">
					<dim>1</dim>
					<dim>144</dim>
					<dim>16</dim>
					<dim>16</dim>
				</port>
			</output>
			<blobs>
				<biases offset="60736" size="576" />
				<weights offset="61312" size="13824" />
			</blobs>
		</layer>
		<layer name="block_3_expand_relu/Relu6" type="Clamp" precision="FP32" id="18">
			<data max="6.000000" min="0.000000" />
			<input>
				<port id="0">
					<dim>1</dim>
					<dim>144</dim>
					<dim>16</dim>
					<dim>16</dim>
				</port>
			</input>
			<output>
				<port id="1" precision="FP32">
					<dim>1</dim>
					<dim>144</dim>
					<dim>16</dim>
					<dim>16</dim>
				</port>
			</output>
		</layer>
		<layer name="block_3_depthwise/depthwise" type="Convolution" precision="FP32" id="19">
			<data dilations="1,1" group="144" kernel="3,3" output="144" pads_begin="0,0" pads_end="1,1" quantization_level="I8" strides="2,2" />
			<input>
				<port id="0">
					<dim>1</dim>
					<dim>144</dim>
					<dim>16</dim>
					<dim>16</dim>
				</port>
			</input>
			<output>
				<port id="1" precision="FP32">
					<dim>1</dim>
					<dim>144</dim>
					<dim>8</dim>
					<dim>8</dim>
				</port>
			</output>
			<blobs>
				<biases offset="75136" size="576" />
				<weights offset="75712" size="5184" />
			</blobs>
		</layer>
		<layer name="block_3_depthwise_relu/Relu6" type="Clamp" precision="FP32" id="20">
			<data max="6.000000" min="0.000000" />
			<input>
				<port id="0">
					<dim>1</dim>
					<dim>144</dim>
					<dim>8</dim>
					<dim>8</dim>
				</port>
			</input>
			<output>
				<port id="1" precision="FP32">
					<dim>1</dim>
					<dim>144</dim>
					<dim>8</dim>
					<dim>8</dim>
				</port>
			</output>
		</layer>
		<layer name="block_3_project/Conv2D" type="Convolution" precision="FP32" id="21">
			<data auto_pad="same_upper" dilations="1,1" group="1" kernel="1,1" output="32" pads_begin="0,0" pads_end="0,0" quantization_level="I8" strides="1,1" />
			<input>
				<port id="0">
					<dim>1</dim>
					<dim>144</dim>
					<dim>8</dim>
					<dim>8</dim>
				</port>
			</input>
			<output>
				<port id="1" precision="FP32">
					<dim>1</dim>
					<dim>32</dim>
					<dim>8</dim>
					<dim>8</dim>
				</port>
			</output>
			<blobs>
				<biases offset="80896" size="128" />
				<weights offset="81024" size="18432" />
			</blobs>
		</layer>
		<layer name="block_4_expand/Conv2D" type="Convolution" precision="FP32" id="22">
			<data auto_pad="same_upper" dilations="1,1" group="1" kernel="1,1" output="192" pads_begin="0,0" pads_end="0,0" quantization_level="I8" strides="1,1" />
			<input>
				<port id="0">
					<dim>1</dim>
					<dim>32</dim>
					<dim>8</dim>
					<dim>8</dim>
				</port>
			</input>
			<output>
				<port id="1" precision="FP32">
					<dim>1</dim>
					<dim>192</dim>
					<dim>8</dim>
					<dim>8</dim>
				</port>
			</output>
			<blobs>
				<biases offset="99456" size="768" />
				<weights offset="100224" size="24576" />
			</blobs>
		</layer>
		<layer name="block_4_expand_relu/Relu6" type="Clamp" precision="FP32" id="23">
			<data max="6.000000" min="0.000000" />
			<input>
				<port id="0">
					<dim>1</dim>
					<dim>192</dim>
					<dim>8</dim>
					<dim>8</dim>
				</port>
			</input>
			<output>
				<port id="1" precision="FP32">
					<dim>1</dim>
					<dim>192</dim>
					<dim>8</dim>
					<dim>8</dim>
				</port>
			</output>
		</layer>
		<layer name="block_4_depthwise/depthwise" type="Convolution" precision="FP32" id="24">
			<data auto_pad="same_upper" dilations="1,1" group="192" kernel="3,3" output="192" pads_begin="1,1" pads_end="1,1" quantization_level="I8" strides="1,1" />
			<input>
				<port id="0">
					<dim>1</dim>
					<dim>192</dim>
					<dim>8</dim>
					<dim>8</dim>
				</port>
			</input>
			<output>
				<port id="1" precision="FP32">
					<dim>1</dim>
					<dim>192</dim>
					<dim>8</dim>
					<dim>8</dim>
				</port>
			</output>
			<blobs>
				<biases offset="124800" size="768" />
				<weights offset="125568" size="6912" />
			</blobs>
		</layer>
		<layer name="block_4_depthwise_relu/Relu6" type="Clamp" precision="FP32" id="25">
			<data max="6.000000" min="0.000000" />
			<input>
				<port id="0">
					<dim>1</dim>
					<dim>192</dim>
					<dim>8</dim>
					<dim>8</dim>
				</port>
			</input>
			<output>
				<port id="1" precision="FP32">
					<dim>1</dim>
					<dim>192</dim>
					<dim>8</dim>
					<dim>8</dim>
				</port>
			</output>
		</layer>
		<layer name="block_4_project/Conv2D" type="Convolution" precision="FP32" id="26">
			<data auto_pad="same_upper" dilations="1,1" group="1" kernel="1,1" output="32" pads_begin="0,0" pads_end="0,0" quantization_level="I8" strides="1,1" />
			<input>
				<port id="0">
					<dim>1</dim>
					<dim>192</dim>
					<dim>8</dim>
					<dim>8</dim>
				</port>
			</input>
			<output>
				<port id="1" precision="FP32">
					<dim>1</dim>
					<dim>32</dim>
					<dim>8</dim>
					<dim>8</dim>
				</port>
			</output>
			<blobs>
				<biases offset="132480" size="128" />
				<weights offset="132608" size="24576" />
			</blobs>
		</layer>
		<layer name="block_4_add/add" type="Eltwise" precision="FP32" id="27">
			<data operation="sum" />
			<input>
				<port id="0">
					<dim>1</dim>
					<dim>32</dim>
					<dim>8</dim>
					<dim>8</dim>
				</port>
				<port id="1">
					<dim>1</dim>
					<dim>32</dim>
					<dim>8</dim>
					<dim>8</dim>
				</port>
			</input>
			<output>
				<port id="2" precision="FP32">
					<dim>1</dim>
					<dim>32</dim>
					<dim>8</dim>
					<dim>8</dim>
				</port>
			</output>
		</layer>
		<layer name="block_5_expand/Conv2D" type="Convolution" precision="FP32" id="28">
			<data auto_pad="same_upper" dilations="1,1" group="1" kernel="1,1" output="192" pads_begin="0,0" pads_end="0,0" quantization_level="I8" strides="1,1" />
			<input>
				<port id="0">
					<dim>1</dim>
					<dim>32</dim>
					<dim>8</dim>
					<dim>8</dim>
				</port>
			</input>
			<output>
				<port id="1" precision="FP32">
					<dim>1</dim>
					<dim>192</dim>
					<dim>8</dim>
					<dim>8</dim>
				</port>
			</output>
			<blobs>
				<biases offset="157184" size="768" />
				<weights offset="157952" size="24576" />
			</blobs>
		</layer>
		<layer name="block_5_expand_relu/Relu6" type="Clamp" precision="FP32" id="29">
			<data max="6.000000" min="0.000000" />
			<input>
				<port id="0">
					<dim>1</dim>
					<dim>192</dim>
					<dim>8</dim>
					<dim>8</dim>
				</port>
			</input>
			<output>
				<port id="1" precision="FP32">
					<dim>1</dim>
					<dim>192</dim>
					<dim>8</dim>
					<dim>8</dim>
				</port>
			</output>
		</layer>
		<layer name="block_5_depthwise/depthwise" type="Convolution" precision="FP32" id="30">
			<data auto_pad="same_upper" dilations="1,1" group="192" kernel="3,3" output="192" pads_begin="1,1" pads_end="1,1" quantization_level="I8" strides="1,1" />
			<input>
				<port id="0">
					<dim>1</dim>
					<dim>192</dim>
					<dim>8</dim>
					<dim>8</dim>
				</port>
			</input>
			<output>
				<port id="1" precision="FP32">
					<dim>1</dim>
					<dim>192</dim>
					<dim>8</dim>
					<dim>8</dim>
				</port>
			</output>
			<blobs>
				<biases offset="182528" size="768" />
				<weights offset="183296" size="6912" />
			</blobs>
		</layer>
		<layer name="block_5_depthwise_relu/Relu6" type="Clamp" precision="FP32" id="31">
			<data max="6.000000" min="0.000000" />
			<input>
				<port id="0">
					<dim>1</dim>
					<dim>192</dim>
					<dim>8</dim>
					<dim>8</dim>
				</port>
			</input>
			<output>
				<port id="1" precision="FP32">
					<dim>1</dim>
					<dim>192</dim>
					<dim>8</dim>
					<dim>8</dim>
				</port>
			</output>
		</layer>
		<layer name="block_5_project/Conv2D" type="Convolution" precision="FP32" id="32">
			<data auto_pad="same_upper" dilations="1,1" group="1" kernel="1,1" output="32" pads_begin="0,0" pads_end="0,0" quantization_level="I8" strides="1,1" />
			<input>
				<port id="0">
					<dim>1</dim>
					<dim>192</dim>
					<dim>8</dim>
					<dim>8</dim>
				</port>
			</input>
			<output>
				<port id="1" precision="FP32">
					<dim>1</dim>
					<dim>32</dim>
					<dim>8</dim>
					<dim>8</dim>
				</port>
			</output>
			<blobs>
				<biases offset="190208" size="128" />
				<weights offset="190336" size="24576" />
			</blobs>
		</layer>
		<layer name="block_5_add/add" type="Eltwise" precision="FP32" id="33">
			<data operation="sum" />
			<input>
				<port id="0">
					<dim>1</dim>
					<dim>32</dim>
					<dim>8</dim>
					<dim>8</dim>
				</port>
				<port id="1">
					<dim>1</dim>
					<dim>32</dim>
					<dim>8</dim>
					<dim>8</dim>
				</port>
			</input>
			<output>
				<port id="2" precision="FP32">
					<dim>1</dim>
					<dim>32</dim>
					<dim>8</dim>
					<dim>8</dim>
				</port>
			</output>
		</layer>
		<layer name="block_6_expand/Conv2D" type="Convolution" precision="FP32" id="34">
			<data auto_pad="same_upper" dilations="1,1" group="1" kernel="1,1" output="192" pads_begin="0,0" pads_end="0,0" quantization_level="I8" strides="1,1" />
			<input>
				<port id="0">
					<dim>1</dim>
					<dim>32</dim>
					<dim>8</dim>
					<dim>8</dim>
				</port>
			</input>
			<output>
				<port id="1" precision="FP32">
					<dim>1</dim>
					<dim>192</dim>
					<dim>8</dim>
					<dim>8</dim>
				</port>
			</output>
			<blobs>
				<biases offset="214912" size="768" />
				<weights offset="215680" size="24576" />
			</blobs>
		</layer>
		<layer name="block_6_expand_relu/Relu6" type="Clamp" precision="FP32" id="35">
			<data max="6.000000" min="0.000000" />
			<input>
				<port id="0">
					<dim>1</dim>
					<dim>192</dim>
					<dim>8</dim>
					<dim>8</dim>
				</port>
			</input>
			<output>
				<port id="1" precision="FP32">
					<dim>1</dim>
					<dim>192</dim>
					<dim>8</dim>
					<dim>8</dim>
				</port>
			</output>
		</layer>
		<layer name="block_6_depthwise/depthwise" type="Convolution" precision="FP32" id="36">
			<data dilations="1,1" group="192" kernel="3,3" output="192" pads_begin="0,0" pads_end="1,1" quantization_level="I8" strides="2,2" />
			<input>
				<port id="0">
					<dim>1</dim>
					<dim>192</dim>
					<dim>8</dim>
					<dim>8</dim>
				</port>
			</input>
			<output>
				<port id="1" precision="FP32">
					<dim>1</dim>
					<dim>192</dim>
					<dim>4</dim>
					<dim>4</dim>
				</port>
			</output>
			<blobs>
				<biases offset="240256" size="768" />
				<weights offset="241024" size="6912" />
			</blobs>
		</layer>
		<layer name="block_6_depthwise_relu/Relu6" type="Clamp" precision="FP32" id="37">
			<data max="6.000000" min="0.000000" />
			<input>
				<port id="0">
					<dim>1</dim>
					<dim>192</dim>
					<dim>4</dim>
					<dim>4</dim>
				</port>
			</input>
			<output>
				<port id="1" precision="FP32">
					<dim>1</dim>
					<dim>192</dim>
					<dim>4</dim>
					<dim>4</dim>
				</port>
			</output>
		</layer>
		<layer name="block_6_project/Conv2D" type="Convolution" precision="FP32" id="38">
			<data auto_pad="same_upper" dilations="1,1" group="1" kernel="1,1" output="64" pads_begin="0,0" pads_end="0,0" quantization_level="I8" strides="1,1" />
			<input>
				<port id="0">
					<dim>1</dim>
					<dim>192</dim>
					<dim>4</dim>
					<dim>4</dim>
				</port>
			</input>
			<output>
				<port id="1" precision="FP32">
					<dim>1</dim>
					<dim>64</dim>
					<dim>4</dim>
					<dim>4</dim>
				</port>
			</output>
			<blobs>
				<biases offset="247936" size="256" />
				<weights offset="248192" size="49152" />
			</blobs>
		</layer>
		<layer name="block_7_expand/Conv2D" type="Convolution" precision="FP32" id="39">
			<data auto_pad="same_upper" dilations="1,1" group="1" kernel="1,1" output="384" pads_begin="0,0" pads_end="0,0" quantization_level="I8" strides="1,1" />
			<input>
				<port id="0">
					<dim>1</dim>
					<dim>64</dim>
					<dim>4</dim>
					<dim>4</dim>
				</port>
			</input>
			<output>
				<port id="1" precision="FP32">
					<dim>1</dim>
					<dim>384</dim>
					<dim>4</dim>
					<dim>4</dim>
				</port>
			</output>
			<blobs>
				<biases offset="297344" size="1536" />
				<weights offset="298880" size="98304" />
			</blobs>
		</layer>
		<layer name="block_7_expand_relu/Relu6" type="Clamp" precision="FP32" id="40">
			<data max="6.000000" min="0.000000" />
			<input>
				<port id="0">
					<dim>1</dim>
					<dim>384</dim>
					<dim>4</dim>
					<dim>4</dim>
				</port>
			</input>
			<output>
				<port id="1" precision="FP32">
					<dim>1</dim>
					<dim>384</dim>
					<dim>4</dim>
					<dim>4</dim>
				</port>
			</output>
		</layer>
		<layer name="block_7_depthwise/depthwise" type="Convolution" precision="FP32" id="41">
			<data auto_pad="same_upper" dilations="1,1" group="384" kernel="3,3" output="384" pads_begin="1,1" pads_end="1,1" quantization_level="I8" strides="1,1" />
			<input>
				<port id="0">
					<dim>1</dim>
					<dim>384</dim>
					<dim>4</dim>
					<dim>4</dim>
				</port>
			</input>
			<output>
				<port id="1" precision="FP32">
					<dim>1</dim>
					<dim>384</dim>
					<dim>4</dim>
					<dim>4</dim>
				</port>
			</output>
			<blobs>
				<biases offset="397184" size="1536" />
				<weights offset="398720" size="13824" />
			</blobs>
		</layer>
		<layer name="block_7_depthwise_relu/Relu6" type="Clamp" precision="FP32" id="42">
			<data max="6.000000" min="0.000000" />
			<input>
				<port id="0">
					<dim>1</dim>
					<dim>384</dim>
					<dim>4</dim>
					<dim>4</dim>
				</port>
			</input>
			<output>
				<port id="1" precision="FP32">
					<dim>1</dim>
					<dim>384</dim>
					<dim>4</dim>
					<dim>4</dim>
				</port>
			</output>
		</layer>
		<layer name="block_7_project/Conv2D" type="Convolution" precision="FP32" id="43">
			<data auto_pad="same_upper" dilations="1,1" group="1" kernel="1,1" output="64" pads_begin="0,0" pads_end="0,0" quantization_level="I8" strides="1,1" />
			<input>
				<port id="0">
					<dim>1</dim>
					<dim>384</dim>
					<dim>4</dim>
					<dim>4</dim>
				</port>
			</input>
			<output>
				<port id="1" precision="FP32">
					<dim>1</dim>
					<dim>64</dim>
					<dim>4</dim>
					<dim>4</dim>
				</port>
			</output>
			<blobs>
				<biases offset="412544" size="256" />
				<weights offset="412800" size="98304" />
			</blobs>
		</layer>
		<layer name="block_7_add/add" type="Eltwise" precision="FP32" id="44">
			<data operation="sum" />
			<input>
				<port id="0">
					<dim>1</dim>
					<dim>64</dim>
					<dim>4</dim>
					<dim>4</dim>
				</port>
				<port id="1">
					<dim>1</dim>
					<dim>64</dim>
					<dim>4</dim>
					<dim>4</dim>
				</port>
			</input>
			<output>
				<port id="2" precision="FP32">
					<dim>1</dim>
					<dim>64</dim>
					<dim>4</dim>
					<dim>4</dim>
				</port>
			</output>
		</layer>
		<layer name="block_8_expand/Conv2D" type="Convolution" precision="FP32" id="45">
			<data auto_pad="same_upper" dilations="1,1" group="1" kernel="1,1" output="384" pads_begin="0,0" pads_end="0,0" quantization_level="I8" strides="1,1" />
			<input>
				<port id="0">
					<dim>1</dim>
					<dim>64</dim>
					<dim>4</dim>
					<dim>4</dim>
				</port>
			</input>
			<output>
				<port id="1" precision="FP32">
					<dim>1</dim>
					<dim>384</dim>
					<dim>4</dim>
					<dim>4</dim>
				</port>
			</output>
			<blobs>
				<biases offset="511104" size="1536" />
				<weights offset="512640" size="98304" />
			</blobs>
		</layer>
		<layer name="block_8_expand_relu/Relu6" type="Clamp" precision="FP32" id="46">
			<data max="6.000000" min="0.000000" />
			<input>
				<port id="0">
					<dim>1</dim>
					<dim>384</dim>
					<dim>4</dim>
					<dim>4</dim>
				</port>
			</input>
			<output>
				<port id="1" precision="FP32">
					<dim>1</dim>
					<dim>384</dim>
					<dim>4</dim>
					<dim>4</dim>
				</port>
			</output>
		</layer>
		<layer name="block_8_depthwise/depthwise" type="Convolution" precision="FP32" id="47">
			<data auto_pad="same_upper" dilations="1,1" group="384" kernel="3,3" output="384" pads_begin="1,1" pads_end="1,1" quantization_level="I8" strides="1,1" />
			<input>
				<port id="0">
					<dim>1</dim>
					<dim>384</dim>
					<dim>4</dim>
					<dim>4</dim>
				</port>
			</input>
			<output>
				<port id="1" precision="FP32">
					<dim>1</dim>
					<dim>384</dim>
					<dim>4</dim>
					<dim>4</dim>
				</port>
			</output>
			<blobs>
				<biases offset="610944" size="1536" />
				<weights offset="612480" size="13824" />
			</blobs>
		</layer>
		<layer name="block_8_depthwise_relu/Relu6" type="Clamp" precision="FP32" id="48">
			<data max="6.000000" min="0.000000" />
			<input>
				<port id="0">
					<dim>1</dim>
					<dim>384</dim>
					<dim>4</dim>
					<dim>4</dim>
				</port>
			</input>
			<output>
				<port id="1" precision="FP32">
					<dim>1</dim>
					<dim>384</dim>
					<dim>4</dim>
					<dim>4</dim>
				</port>
			</output>
		</layer>
		<layer name="block_8_project/Conv2D" type="Convolution" precision="FP32" id="49">
			<data auto_pad="same_upper" dilations="1,1" group="1" kernel="1,1" output="64" pads_begin="0,0" pads_end="0,0" quantization_level="I8" strides="1,1" />
			<input>
				<port id="0">
					<dim>1</dim>
					<dim>384</dim>
					<dim>4</dim>
					<dim>4</dim>
				</port>
			</input>
			<output>
				<port id="1" precision="FP32">
					<dim>1</dim>
					<dim>64</dim>
					<dim>4</dim>
					<dim>4</dim>
				</port>
			</output>
			<blobs>
				<biases offset="626304" size="256" />
				<weights offset="626560" size="98304" />
			</blobs>
		</layer>
		<layer name="block_8_add/add" type="Eltwise" precision="FP32" id="50">
			<data operation="sum" />
			<input>
				<port id="0">
					<dim>1</dim>
					<dim>64</dim>
					<dim>4</dim>
					<dim>4</dim>
				</port>
				<port id="1">
					<dim>1</dim>
					<dim>64</dim>
					<dim>4</dim>
					<dim>4</dim>
				</port>
			</input>
			<output>
				<port id="2" precision="FP32">
					<dim>1</dim>
					<dim>64</dim>
					<dim>4</dim>
					<dim>4</dim>
				</port>
			</output>
		</layer>
		<layer name="block_9_expand/Conv2D" type="Convolution" precision="FP32" id="51">
			<data auto_pad="same_upper" dilations="1,1" group="1" kernel="1,1" output="384" pads_begin="0,0" pads_end="0,0" quantization_level="I8" strides="1,1" />
			<input>
				<port id="0">
					<dim>1</dim>
					<dim>64</dim>
					<dim>4</dim>
					<dim>4</dim>
				</port>
			</input>
			<output>
				<port id="1" precision="FP32">
					<dim>1</dim>
					<dim>384</dim>
					<dim>4</dim>
					<dim>4</dim>
				</port>
			</output>
			<blobs>
				<biases offset="724864" size="1536" />
				<weights offset="726400" size="98304" />
			</blobs>
		</layer>
		<layer name="block_9_expand_relu/Relu6" type="Clamp" precision="FP32" id="52">
			<data max="6.000000" min="0.000000" />
			<input>
				<port id="0">
					<dim>1</dim>
					<dim>384</dim>
					<dim>4</dim>
					<dim>4</dim>
				</port>
			</input>
			<output>
				<port id="1" precision="FP32">
					<dim>1</dim>
					<dim>384</dim>
					<dim>4</dim>
					<dim>4</dim>
				</port>
			</output>
		</layer>
		<layer name="block_9_depthwise/depthwise" type="Convolution" precision="FP32" id="53">
			<data auto_pad="same_upper" dilations="1,1" group="384" kernel="3,3" output="384" pads_begin="1,1" pads_end="1,1" quantization_level="I8" strides="1,1" />
			<input>
				<port id="0">
					<dim>1</dim>
					<dim>384</dim>
					<dim>4</dim>
					<dim>4</dim>
				</port>
			</input>
			<output>
				<port id="1" precision="FP32">
					<dim>1</dim>
					<dim>384</dim>
					<dim>4</dim>
					<dim>4</dim>
				</port>
			</output>
			<blobs>
				<biases offset="824704" size="1536" />
				<weights offset="826240" size="13824" />
			</blobs>
		</layer>
		<layer name="block_9_depthwise_relu/Relu6" type="Clamp" precision="FP32" id="54">
			<data max="6.000000" min="0.000000" />
			<input>
				<port id="0">
					<dim>1</dim>
					<dim>384</dim>
					<dim>4</dim>
					<dim>4</dim>
				</port>
			</input>
			<output>
				<port id="1" precision="FP32">
					<dim>1</dim>
					<dim>384</dim>
					<dim>4</dim>
					<dim>4</dim>
				</port>
			</output>
		</layer>
		<layer name="block_9_project/Conv2D" type="Convolution" precision="FP32" id="55">
			<data auto_pad="same_upper" dilations="1,1" group="1" kernel="1,1" output="64" pads_begin="0,0" pads_end="0,0" quantization_level="I8" strides="1,1" />
			<input>
				<port id="0">
					<dim>1</dim>
					<dim>384</dim>
					<dim>4</dim>
					<dim>4</dim>
				</port>
			</input>
			<output>
				<port id="1" precision="FP32">
					<dim>1</dim>
					<dim>64</dim>
					<dim>4</dim>
					<dim>4</dim>
				</port>
			</output>
			<blobs>
				<biases offset="840064" size="256" />
				<weights offset="840320" size="98304" />
			</blobs>
		</layer>
		<layer name="block_9_add/add" type="Eltwise" precision="FP32" id="56">
			<data operation="sum" />
			<input>
				<port id="0">
					<dim>1</dim>
					<dim>64</dim>
					<dim>4</dim>
					<dim>4</dim>
				</port>
				<port id="1">
					<dim>1</dim>
					<dim>64</dim>
					<dim>4</dim>
					<dim>4</dim>
				</port>
			</input>
			<output>
				<port id="2" precision="FP32">
					<dim>1</dim>
					<dim>64</dim>
					<dim>4</dim>
					<dim>4</dim>
				</port>
			</output>
		</layer>
		<layer name="block_10_expand/Conv2D" type="Convolution" precision="FP32" id="57">
			<data auto_pad="same_upper" dilations="1,1" group="1" kernel="1,1" output="384" pads_begin="0,0" pads_end="0,0" quantization_level="I8" strides="1,1" />
			<input>
				<port id="0">
					<dim>1</dim>
					<dim>64</dim>
					<dim>4</dim>
					<dim>4</dim>
				</port>
			</input>
			<output>
				<port id="1" precision="FP32">
					<dim>1</dim>
					<dim>384</dim>
					<dim>4</dim>
					<dim>4</dim>
				</port>
			</output>
			<blobs>
				<biases offset="938624" size="1536" />
				<weights offset="940160" size="98304" />
			</blobs>
		</layer>
		<layer name="block_10_expand_relu/Relu6" type="Clamp" precision="FP32" id="58">
			<data max="6.000000" min="0.000000" />
			<input>
				<port id="0">
					<dim>1</dim>
					<dim>384</dim>
					<dim>4</dim>
					<dim>4</dim>
				</port>
			</input>
			<output>
				<port id="1" precision="FP32">
					<dim>1</dim>
					<dim>384</dim>
					<dim>4</dim>
					<dim>4</dim>
				</port>
			</output>
		</layer>
		<layer name="block_10_depthwise/depthwise" type="Convolution" precision="FP32" id="59">
			<data auto_pad="same_upper" dilations="1,1" group="384" kernel="3,3" output="384" pads_begin="1,1" pads_end="1,1" quantization_level="I8" strides="1,1" />
			<input>
				<port id="0">
					<dim>1</dim>
					<dim>384</dim>
					<dim>4</dim>
					<dim>4</dim>
				</port>
			</input>
			<output>
				<port id="1" precision="FP32">
					<dim>1</dim>
					<dim>384</dim>
					<dim>4</dim>
					<dim>4</dim>
				</port>
			</output>
			<blobs>
				<biases offset="1038464" size="1536" />
				<weights offset="1040000" size="13824" />
			</blobs>
		</layer>
		<layer name="block_10_depthwise_relu/Relu6" type="Clamp" precision="FP32" id="60">
			<data max="6.000000" min="0.000000" />
			<input>
				<port id="0">
					<dim>1</dim>
					<dim>384</dim>
					<dim>4</dim>
					<dim>4</dim>
				</port>
			</input>
			<output>
				<port id="1" precision="FP32">
					<dim>1</dim>
					<dim>384</dim>
					<dim>4</dim>
					<dim>4</dim>
				</port>
			</output>
		</layer>
		<layer name="block_10_project/Conv2D" type="Convolution" precision="FP32" id="61">
			<data auto_pad="same_upper" dilations="1,1" group="1" kernel="1,1" output="96" pads_begin="0,0" pads_end="0,0" quantization_level="I8" strides="1,1" />
			<input>
				<port id="0">
					<dim>1</dim>
					<dim>384</dim>
					<dim>4</dim>
					<dim>4</dim>
				</port>
			</input>
			<output>
				<port id="1" precision="FP32">
					<dim>1</dim>
					<dim>96</dim>
					<dim>4</dim>
					<dim>4</dim>
				</port>
			</output>
			<blobs>
				<biases offset="1053824" size="384" />
				<weights offset="1054208" size="147456" />
			</blobs>
		</layer>
		<layer name="block_11_expand/Conv2D" type="Convolution" precision="FP32" id="62">
			<data auto_pad="same_upper" dilations="1,1" group="1" kernel="1,1" output="576" pads_begin="0,0" pads_end="0,0" quantization_level="I8" strides="1,1" />
			<input>
				<port id="0">
					<dim>1</dim>
					<dim>96</dim>
					<dim>4</dim>
					<dim>4</dim>
				</port>
			</input>
			<output>
				<port id="1" precision="FP32">
					<dim>1</dim>
					<dim>576</dim>
					<dim>4</dim>
					<dim>4</dim>
				</port>
			</output>
			<blobs>
				<biases offset="1201664" size="2304" />
				<weights offset="1203968" size="221184" />
			</blobs>
		</layer>
		<layer name="block_11_expand_relu/Relu6" type="Clamp" precision="FP32" id="63">
			<data max="6.000000" min="0.000000" />
			<input>
				<port id="0">
					<dim>1</dim>
					<dim>576</dim>
					<dim>4</dim>
					<dim>4</dim>
				</port>
			</input>
			<output>
				<port id="1" precision="FP32">
					<dim>1</dim>
					<dim>576</dim>
					<dim>4</dim>
					<dim>4</dim>
				</port>
			</output>
		</layer>
		<layer name="block_11_depthwise/depthwise" type="Convolution" precision="FP32" id="64">
			<data auto_pad="same_upper" dilations="1,1" group="576" kernel="3,3" output="576" pads_begin="1,1" pads_end="1,1" quantization_level="I8" strides="1,1" />
			<input>
				<port id="0">
					<dim>1</dim>
					<dim>576</dim>
					<dim>4</dim>
					<dim>4</dim>
				</port>
			</input>
			<output>
				<port id="1" precision="FP32">
					<dim>1</dim>
					<dim>576</dim>
					<dim>4</dim>
					<dim>4</dim>
				</port>
			</output>
			<blobs>
				<biases offset="1425152" size="2304" />
				<weights offset="1427456" size="20736" />
			</blobs>
		</layer>
		<layer name="block_11_depthwise_relu/Relu6" type="Clamp" precision="FP32" id="65">
			<data max="6.000000" min="0.000000" />
			<input>
				<port id="0">
					<dim>1</dim>
					<dim>576</dim>
					<dim>4</dim>
					<dim>4</dim>
				</port>
			</input>
			<output>
				<port id="1" precision="FP32">
					<dim>1</dim>
					<dim>576</dim>
					<dim>4</dim>
					<dim>4</dim>
				</port>
			</output>
		</layer>
		<layer name="block_11_project/Conv2D" type="Convolution" precision="FP32" id="66">
			<data auto_pad="same_upper" dilations="1,1" group="1" kernel="1,1" output="96" pads_begin="0,0" pads_end="0,0" quantization_level="I8" strides="1,1" />
			<input>
				<port id="0">
					<dim>1</dim>
					<dim>576</dim>
					<dim>4</dim>
					<dim>4</dim>
				</port>
			</input>
			<output>
				<port id="1" precision="FP32">
					<dim>1</dim>
					<dim>96</dim>
					<dim>4</dim>
					<dim>4</dim>
				</port>
			</output>
			<blobs>
				<biases offset="1448192" size="384" />
				<weights offset="1448576" size="221184" />
			</blobs>
		</layer>
		<layer name="block_11_add/add" type="Eltwise" precision="FP32" id="67">
			<data operation="sum" />
			<input>
				<port id="0">
					<dim>1</dim>
					<dim>96</dim>
					<dim>4</dim>
					<dim>4</dim>
				</port>
				<port id="1">
					<dim>1</dim>
					<dim>96</dim>
					<dim>4</dim>
					<dim>4</dim>
				</port>
			</input>
			<output>
				<port id="2" precision="FP32">
					<dim>1</dim>
					<dim>96</dim>
					<dim>4</dim>
					<dim>4</dim>
				</port>
			</output>
		</layer>
		<layer name="block_12_expand/Conv2D" type="Convolution" precision="FP32" id="68">
			<data auto_pad="same_upper" dilations="1,1" group="1" kernel="1,1" output="576" pads_begin="0,0" pads_end="0,0" quantization_level="I8" strides="1,1" />
			<input>
				<port id="0">
					<dim>1</dim>
					<dim>96</dim>
					<dim>4</dim>
					<dim>4</dim>
				</port>
			</input>
			<output>
				<port id="1" precision="FP32">
					<dim>1</dim>
					<dim>576</dim>
					<dim>4</dim>
					<dim>4</dim>
				</port>
			</output>
			<blobs>
				<biases offset="1669760" size="2304" />
				<weights offset="1672064" size="221184" />
			</blobs>
		</layer>
		<layer name="block_12_expand_relu/Relu6" type="Clamp" precision="FP32" id="69">
			<data max="6.000000" min="0.000000" />
			<input>
				<port id="0">
					<dim>1</dim>
					<dim>576</dim>
					<dim>4</dim>
					<dim>4</dim>
				</port>
			</input>
			<output>
				<port id="1" precision="FP32">
					<dim>1</dim>
					<dim>576</dim>
					<dim>4</dim>
					<dim>4</dim>
				</port>
			</output>
		</layer>
		<layer name="block_12_depthwise/depthwise" type="Convolution" precision="FP32" id="70">
			<data auto_pad="same_upper" dilations="1,1" group="576" kernel="3,3" output="576" pads_begin="1,1" pads_end="1,1" quantization_level="I8" strides="1,1" />
			<input>
				<port id="0">
					<dim>1</dim>
					<dim>576</dim>
					<dim>4</dim>
					<dim>4</dim>
				</port>
			</input>
			<output>
				<port id="1" precision="FP32">
					<dim>1</dim>
					<dim>576</dim>
					<dim>4</dim>
					<dim>4</dim>
				</port>
			</output>
			<blobs>
				<biases offset="1893248" size="2304" />
				<weights offset="1895552" size="20736" />
			</blobs>
		</layer>
		<layer name="block_12_depthwise_relu/Relu6" type="Clamp" precision="FP32" id="71">
			<data max="6.000000" min="0.000000" />
			<input>
				<port id="0">
					<dim>1</dim>
					<dim>576</dim>
					<dim>4</dim>
					<dim>4</dim>
				</port>
			</input>
			<output>
				<port id="1" precision="FP32">
					<dim>1</dim>
					<dim>576</dim>
					<dim>4</dim>
					<dim>4</dim>
				</port>
			</output>
		</layer>
		<layer name="block_12_project/Conv2D" type="Convolution" precision="FP32" id="72">
			<data auto_pad="same_upper" dilations="1,1" group="1" kernel="1,1" output="96" pads_begin="0,0" pads_end="0,0" quantization_level="I8" strides="1,1" />
			<input>
				<port id="0">
					<dim>1</dim>
					<dim>576</dim>
					<dim>4</dim>
					<dim>4</dim>
				</port>
			</input>
			<output>
				<port id="1" precision="FP32">
					<dim>1</dim>
					<dim>96</dim>
					<dim>4</dim>
					<dim>4</dim>
				</port>
			</output>
			<blobs>
				<biases offset="1916288" size="384" />
				<weights offset="1916672" size="221184" />
			</blobs>
		</layer>
		<layer name="block_12_add/add" type="Eltwise" precision="FP32" id="73">
			<data operation="sum" />
			<input>
				<port id="0">
					<dim>1</dim>
					<dim>96</dim>
					<dim>4</dim>
					<dim>4</dim>
				</port>
				<port id="1">
					<dim>1</dim>
					<dim>96</dim>
					<dim>4</dim>
					<dim>4</dim>
				</port>
			</input>
			<output>
				<port id="2" precision="FP32">
					<dim>1</dim>
					<dim>96</dim>
					<dim>4</dim>
					<dim>4</dim>
				</port>
			</output>
		</layer>
		<layer name="block_13_expand/Conv2D" type="Convolution" precision="FP32" id="74">
			<data auto_pad="same_upper" dilations="1,1" group="1" kernel="1,1" output="576" pads_begin="0,0" pads_end="0,0" quantization_level="I8" strides="1,1" />
			<input>
				<port id="0">
					<dim>1</dim>
					<dim>96</dim>
					<dim>4</dim>
					<dim>4</dim>
				</port>
			</input>
			<output>
				<port id="1" precision="FP32">
					<dim>1</dim>
					<dim>576</dim>
					<dim>4</dim>
					<dim>4</dim>
				</port>
			</output>
			<blobs>
				<biases offset="2137856" size="2304" />
				<weights offset="2140160" size="221184" />
			</blobs>
		</layer>
		<layer name="block_13_expand_relu/Relu6" type="Clamp" precision="FP32" id="75">
			<data max="6.000000" min="0.000000" />
			<input>
				<port id="0">
					<dim>1</dim>
					<dim>576</dim>
					<dim>4</dim>
					<dim>4</dim>
				</port>
			</input>
			<output>
				<port id="1" precision="FP32">
					<dim>1</dim>
					<dim>576</dim>
					<dim>4</dim>
					<dim>4</dim>
				</port>
			</output>
		</layer>
		<layer name="block_13_depthwise/depthwise" type="Convolution" precision="FP32" id="76">
			<data dilations="1,1" group="576" kernel="3,3" output="576" pads_begin="0,0" pads_end="1,1" quantization_level="I8" strides="2,2" />
			<input>
				<port id="0">
					<dim>1</dim>
					<dim>576</dim>
					<dim>4</dim>
					<dim>4</dim>
				</port>
			</input>
			<output>
				<port id="1" precision="FP32">
					<dim>1</dim>
					<dim>576</dim>
					<dim>2</dim>
					<dim>2</dim>
				</port>
			</output>
			<blobs>
				<biases offset="2361344" size="2304" />
				<weights offset="2363648" size="20736" />
			</blobs>
		</layer>
		<layer name="block_13_depthwise_relu/Relu6" type="Clamp" precision="FP32" id="77">
			<data max="6.000000" min="0.000000" />
			<input>
				<port id="0">
					<dim>1</dim>
					<dim>576</dim>
					<dim>2</dim>
					<dim>2</dim>
				</port>
			</input>
			<output>
				<port id="1" precision="FP32">
					<dim>1</dim>
					<dim>576</dim>
					<dim>2</dim>
					<dim>2</dim>
				</port>
			</output>
		</layer>
		<layer name="block_13_project/Conv2D" type="Convolution" precision="FP32" id="78">
			<data auto_pad="same_upper" dilations="1,1" group="1" kernel="1,1" output="160" pads_begin="0,0" pads_end="0,0" quantization_level="I8" strides="1,1" />
			<input>
				<port id="0">
					<dim>1</dim>
					<dim>576</dim>
					<dim>2</dim>
					<dim>2</dim>
				</port>
			</input>
			<output>
				<port id="1" precision="FP32">
					<dim>1</dim>
					<dim>160</dim>
					<dim>2</dim>
					<dim>2</dim>
				</port>
			</output>
			<blobs>
				<biases offset="2384384" size="640" />
				<weights offset="2385024" size="368640" />
			</blobs>
		</layer>
		<layer name="block_14_expand/Conv2D" type="Convolution" precision="FP32" id="79">
			<data auto_pad="same_upper" dilations="1,1" group="1" kernel="1,1" output="960" pads_begin="0,0" pads_end="0,0" quantization_level="I8" strides="1,1" />
			<input>
				<port id="0">
					<dim>1</dim>
					<dim>160</dim>
					<dim>2</dim>
					<dim>2</dim>
				</port>
			</input>
			<output>
				<port id="1" precision="FP32">
					<dim>1</dim>
					<dim>960</dim>
					<dim>2</dim>
					<dim>2</dim>
				</port>
			</output>
			<blobs>
				<biases offset="2753664" size="3840" />
				<weights offset="2757504" size="614400" />
			</blobs>
		</layer>
		<layer name="block_14_expand_relu/Relu6" type="Clamp" precision="FP32" id="80">
			<data max="6.000000" min="0.000000" />
			<input>
				<port id="0">
					<dim>1</dim>
					<dim>960</dim>
					<dim>2</dim>
					<dim>2</dim>
				</port>
			</input>
			<output>
				<port id="1" precision="FP32">
					<dim>1</dim>
					<dim>960</dim>
					<dim>2</dim>
					<dim>2</dim>
				</port>
			</output>
		</layer>
		<layer name="block_14_depthwise/depthwise" type="Convolution" precision="FP32" id="81">
			<data auto_pad="same_upper" dilations="1,1" group="960" kernel="3,3" output="960" pads_begin="1,1" pads_end="1,1" quantization_level="I8" strides="1,1" />
			<input>
				<port id="0">
					<dim>1</dim>
					<dim>960</dim>
					<dim>2</dim>
					<dim>2</dim>
				</port>
			</input>
			<output>
				<port id="1" precision="FP32">
					<dim>1</dim>
					<dim>960</dim>
					<dim>2</dim>
					<dim>2</dim>
				</port>
			</output>
			<blobs>
				<biases offset="3371904" size="3840" />
				<weights offset="3375744" size="34560" />
			</blobs>
		</layer>
		<layer name="block_14_depthwise_relu/Relu6" type="Clamp" precision="FP32" id="82">
			<data max="6.000000" min="0.000000" />
			<input>
				<port id="0">
					<dim>1</dim>
					<dim>960</dim>
					<dim>2</dim>
					<dim>2</dim>
				</port>
			</input>
			<output>
				<port id="1" precision="FP32">
					<dim>1</dim>
					<dim>960</dim>
					<dim>2</dim>
					<dim>2</dim>
				</port>
			</output>
		</layer>
		<layer name="block_14_project/Conv2D" type="Convolution" precision="FP32" id="83">
			<data auto_pad="same_upper" dilations="1,1" group="1" kernel="1,1" output="160" pads_begin="0,0" pads_end="0,0" quantization_level="I8" strides="1,1" />
			<input>
				<port id="0">
					<dim>1</dim>
					<dim>960</dim>
					<dim>2</dim>
					<dim>2</dim>
				</port>
			</input>
			<output>
				<port id="1" precision="FP32">
					<dim>1</dim>
					<dim>160</dim>
					<dim>2</dim>
					<dim>2</dim>
				</port>
			</output>
			<blobs>
				<biases offset="3410304" size="640" />
				<weights offset="3410944" size="614400" />
			</blobs>
		</layer>
		<layer name="block_14_add/add" type="Eltwise" precision="FP32" id="84">
			<data operation="sum" />
			<input>
				<port id="0">
					<dim>1</dim>
					<dim>160</dim>
					<dim>2</dim>
					<dim>2</dim>
				</port>
				<port id="1">
					<dim>1</dim>
					<dim>160</dim>
					<dim>2</dim>
					<dim>2</dim>
				</port>
			</input>
			<output>
				<port id="2" precision="FP32">
					<dim>1</dim>
					<dim>160</dim>
					<dim>2</dim>
					<dim>2</dim>
				</port>
			</output>
		</layer>
		<layer name="block_15_expand/Conv2D" type="Convolution" precision="FP32" id="85">
			<data auto_pad="same_upper" dilations="1,1" group="1" kernel="1,1" output="960" pads_begin="0,0" pads_end="0,0" quantization_level="I8" strides="1,1" />
			<input>
				<port id="0">
					<dim>1</dim>
					<dim>160</dim>
					<dim>2</dim>
					<dim>2</dim>
				</port>
			</input>
			<output>
				<port id="1" precision="FP32">
					<dim>1</dim>
					<dim>960</dim>
					<dim>2</dim>
					<dim>2</dim>
				</port>
			</output>
			<blobs>
				<biases offset="4025344" size="3840" />
				<weights offset="4029184" size="614400" />
			</blobs>
		</layer>
		<layer name="block_15_expand_relu/Relu6" type="Clamp" precision="FP32" id="86">
			<data max="6.000000" min="0.000000" />
			<input>
				<port id="0">
					<dim>1</dim>
					<dim>960</dim>
					<dim>2</dim>
					<dim>2</dim>
				</port>
			</input>
			<output>
				<port id="1" precision="FP32">
					<dim>1</dim>
					<dim>960</dim>
					<dim>2</dim>
					<dim>2</dim>
				</port>
			</output>
		</layer>
		<layer name="block_15_depthwise/depthwise" type="Convolution" precision="FP32" id="87">
			<data auto_pad="same_upper" dilations="1,1" group="960" kernel="3,3" output="960" pads_begin="1,1" pads_end="1,1" quantization_level="I8" strides="1,1" />
			<input>
				<port id="0">
					<dim>1</dim>
					<dim>960</dim>
					<dim>2</dim>
					<dim>2</dim>
				</port>
			</input>
			<output>
				<port id="1" precision="FP32">
					<dim>1</dim>
					<dim>960</dim>
					<dim>2</dim>
					<dim>2</dim>
				</port>
			</output>
			<blobs>
				<biases offset="4643584" size="3840" />
				<weights offset="4647424" size="34560" />
			</blobs>
		</layer>
		<layer name="block_15_depthwise_relu/Relu6" type="Clamp" precision="FP32" id="88">
			<data max="6.000000" min="0.000000" />
			<input>
				<port id="0">
					<dim>1</dim>
					<dim>960</dim>
					<dim>2</dim>
					<dim>2</dim>
				</port>
			</input>
			<output>
				<port id="1" precision="FP32">
					<dim>1</dim>
					<dim>960</dim>
					<dim>2</dim>
					<dim>2</dim>
				</port>
			</output>
		</layer>
		<layer name="block_15_project/Conv2D" type="Convolution" precision="FP32" id="89">
			<data auto_pad="same_upper" dilations="1,1" group="1" kernel="1,1" output="160" pads_begin="0,0" pads_end="0,0" quantization_level="I8" strides="1,1" />
			<input>
				<port id="0">
					<dim>1</dim>
					<dim>960</dim>
					<dim>2</dim>
					<dim>2</dim>
				</port>
			</input>
			<output>
				<port id="1" precision="FP32">
					<dim>1</dim>
					<dim>160</dim>
					<dim>2</dim>
					<dim>2</dim>
				</port>
			</output>
			<blobs>
				<biases offset="4681984" size="640" />
				<weights offset="4682624" size="614400" />
			</blobs>
		</layer>
		<layer name="block_15_add/add" type="Eltwise" precision="FP32" id="90">
			<data operation="sum" />
			<input>
				<port id="0">
					<dim>1</dim>
					<dim>160</dim>
					<dim>2</dim>
					<dim>2</dim>
				</port>
				<port id="1">
					<dim>1</dim>
					<dim>160</dim>
					<dim>2</dim>
					<dim>2</dim>
				</port>
			</input>
			<output>
				<port id="2" precision="FP32">
					<dim>1</dim>
					<dim>160</dim>
					<dim>2</dim>
					<dim>2</dim>
				</port>
			</output>
		</layer>
		<layer name="block_16_expand/Conv2D" type="Convolution" precision="FP32" id="91">
			<data auto_pad="same_upper" dilations="1,1" group="1" kernel="1,1" output="960" pads_begin="0,0" pads_end="0,0" quantization_level="I8" strides="1,1" />
			<input>
				<port id="0">
					<dim>1</dim>
					<dim>160</dim>
					<dim>2</dim>
					<dim>2</dim>
				</port>
			</input>
			<output>
				<port id="1" precision="FP32">
					<dim>1</dim>
					<dim>960</dim>
					<dim>2</dim>
					<dim>2</dim>
				</port>
			</output>
			<blobs>
				<biases offset="5297024" size="3840" />
				<weights offset="5300864" size="614400" />
			</blobs>
		</layer>
		<layer name="block_16_expand_relu/Relu6" type="Clamp" precision="FP32" id="92">
			<data max="6.000000" min="0.000000" />
			<input>
				<port id="0">
					<dim>1</dim>
					<dim>960</dim>
					<dim>2</dim>
					<dim>2</dim>
				</port>
			</input>
			<output>
				<port id="1" precision="FP32">
					<dim>1</dim>
					<dim>960</dim>
					<dim>2</dim>
					<dim>2</dim>
				</port>
			</output>
		</layer>
		<layer name="block_16_depthwise/depthwise" type="Convolution" precision="FP32" id="93">
			<data auto_pad="same_upper" dilations="1,1" group="960" kernel="3,3" output="960" pads_begin="1,1" pads_end="1,1" quantization_level="I8" strides="1,1" />
			<input>
				<port id="0">
					<dim>1</dim>
					<dim>960</dim>
					<dim>2</dim>
					<dim>2</dim>
				</port>
			</input>
			<output>
				<port id="1" precision="FP32">
					<dim>1</dim>
					<dim>960</dim>
					<dim>2</dim>
					<dim>2</dim>
				</port>
			</output>
			<blobs>
				<biases offset="5915264" size="3840" />
				<weights offset="5919104" size="34560" />
			</blobs>
		</layer>
		<layer name="block_16_depthwise_relu/Relu6" type="Clamp" precision="FP32" id="94">
			<data max="6.000000" min="0.000000" />
			<input>
				<port id="0">
					<dim>1</dim>
					<dim>960</dim>
					<dim>2</dim>
					<dim>2</dim>
				</port>
			</input>
			<output>
				<port id="1" precision="FP32">
					<dim>1</dim>
					<dim>960</dim>
					<dim>2</dim>
					<dim>2</dim>
				</port>
			</output>
		</layer>
		<layer name="block_16_project/Conv2D" type="Convolution" precision="FP32" id="95">
			<data auto_pad="same_upper" dilations="1,1" group="1" kernel="1,1" output="320" pads_begin="0,0" pads_end="0,0" quantization_level="I8" strides="1,1" />
			<input>
				<port id="0">
					<dim>1</dim>
					<dim>960</dim>
					<dim>2</dim>
					<dim>2</dim>
				</port>
			</input>
			<output>
				<port id="1" precision="FP32">
					<dim>1</dim>
					<dim>320</dim>
					<dim>2</dim>
					<dim>2</dim>
				</port>
			</output>
			<blobs>
				<biases offset="5953664" size="1280" />
				<weights offset="5954944" size="1228800" />
			</blobs>
		</layer>
		<layer name="Conv_1/Conv2D" type="Convolution" precision="FP32" id="96">
			<data auto_pad="valid" dilations="1,1" group="1" kernel="1,1" output="1280" pads_begin="0,0" pads_end="0,0" quantization_level="I8" strides="1,1" />
			<input>
				<port id="0">
					<dim>1</dim>
					<dim>320</dim>
					<dim>2</dim>
					<dim>2</dim>
				</port>
			</input>
			<output>
				<port id="1" precision="FP32">
					<dim>1</dim>
					<dim>1280</dim>
					<dim>2</dim>
					<dim>2</dim>
				</port>
			</output>
			<blobs>
				<biases offset="7183744" size="5120" />
				<weights offset="7188864" size="1638400" />
			</blobs>
		</layer>
		<layer name="out_relu/Relu6" type="Clamp" precision="FP32" id="97">
			<data max="6.000000" min="0.000000" />
			<input>
				<port id="0">
					<dim>1</dim>
					<dim>1280</dim>
					<dim>2</dim>
					<dim>2</dim>
				</port>
			</input>
			<output>
				<port id="1" precision="FP32">
					<dim>1</dim>
					<dim>1280</dim>
					<dim>2</dim>
					<dim>2</dim>
				</port>
			</output>
		</layer>
		<layer name="10592_const" type="Const" precision="I32" id="98">
			<output>
				<port id="0" precision="I32">
					<dim>2</dim>
				</port>
			</output>
			<blobs>
				<custom offset="8827264" size="8" />
			</blobs>
		</layer>
		<layer name="10590_const" type="Const" precision="I32" id="99">
			<output>
				<port id="0" precision="I32">
					<dim>4</dim>
				</port>
			</output>
			<blobs>
				<custom offset="8827272" size="16" />
			</blobs>
		</layer>
		<layer name="global_average_pooling2d/Mean/Reshape" type="Reshape" precision="FP32" id="100">
			<data dim="" />
			<input>
				<port id="0">
					<dim>1</dim>
					<dim>1280</dim>
					<dim>2</dim>
					<dim>2</dim>
				</port>
				<port id="1">
					<dim>4</dim>
				</port>
			</input>
			<output>
				<port id="2" precision="FP32">
					<dim>1</dim>
					<dim>1280</dim>
					<dim>4</dim>
					<dim>1</dim>
				</port>
			</output>
		</layer>
		<layer name="global_average_pooling2d/Mean/Pool" type="Pooling" precision="FP32" id="101">
			<data exclude-pad="false" kernel="4,1" pads_begin="0,0" pads_end="0,0" pool-method="avg" strides="1,1" />
			<input>
				<port id="0">
					<dim>1</dim>
					<dim>1280</dim>
					<dim>4</dim>
					<dim>1</dim>
				</port>
			</input>
			<output>
				<port id="1" precision="FP32">
					<dim>1</dim>
					<dim>1280</dim>
					<dim>1</dim>
					<dim>1</dim>
				</port>
			</output>
		</layer>
		<layer name="global_average_pooling2d/Mean/FinalReshape" type="Reshape" precision="FP32" id="102">
			<data dim="" />
			<input>
				<port id="0">
					<dim>1</dim>
					<dim>1280</dim>
					<dim>1</dim>
					<dim>1</dim>
				</port>
				<port id="1">
					<dim>2</dim>
				</port>
			</input>
			<output>
				<port id="2" precision="FP32">
					<dim>1</dim>
					<dim>1280</dim>
				</port>
			</output>
		</layer>
		<layer name="Logits/MatMul" type="FullyConnected" precision="FP32" id="103">
			<data out-size="29" quantization_level="I8" />
			<input>
				<port id="0">
					<dim>1</dim>
					<dim>1280</dim>
				</port>
			</input>
			<output>
				<port id="1" precision="FP32">
					<dim>1</dim>
					<dim>29</dim>
				</port>
			</output>
			<blobs>
				<biases offset="8827288" size="116" />
				<weights offset="8827404" size="148480" />
			</blobs>
		</layer>
		<layer name="Logits/Softmax" type="SoftMax" precision="FP32" id="104">
			<data axis="1" />
			<input>
				<port id="0">
					<dim>1</dim>
					<dim>29</dim>
				</port>
			</input>
			<output>
				<port id="1" precision="FP32">
					<dim>1</dim>
					<dim>29</dim>
				</port>
			</output>
		</layer>
	</layers>
	<edges>
		<edge from-layer="0" from-port="0" to-layer="1" to-port="0" />
		<edge from-layer="1" from-port="1" to-layer="2" to-port="0" />
		<edge from-layer="2" from-port="1" to-layer="3" to-port="0" />
		<edge from-layer="3" from-port="1" to-layer="4" to-port="0" />
		<edge from-layer="4" from-port="1" to-layer="5" to-port="0" />
		<edge from-layer="5" from-port="1" to-layer="6" to-port="0" />
		<edge from-layer="6" from-port="1" to-layer="7" to-port="0" />
		<edge from-layer="7" from-port="1" to-layer="8" to-port="0" />
		<edge from-layer="8" from-port="1" to-layer="9" to-port="0" />
		<edge from-layer="9" from-port="1" to-layer="10" to-port="0" />
		<edge from-layer="10" from-port="1" to-layer="16" to-port="0" />
		<edge from-layer="10" from-port="1" to-layer="11" to-port="0" />
		<edge from-layer="11" from-port="1" to-layer="12" to-port="0" />
		<edge from-layer="12" from-port="1" to-layer="13" to-port="0" />
		<edge from-layer="13" from-port="1" to-layer="14" to-port="0" />
		<edge from-layer="14" from-port="1" to-layer="15" to-port="0" />
		<edge from-layer="15" from-port="1" to-layer="16" to-port="1" />
		<edge from-layer="16" from-port="2" to-layer="17" to-port="0" />
		<edge from-layer="17" from-port="1" to-layer="18" to-port="0" />
		<edge from-layer="18" from-port="1" to-layer="19" to-port="0" />
		<edge from-layer="19" from-port="1" to-layer="20" to-port="0" />
		<edge from-layer="20" from-port="1" to-layer="21" to-port="0" />
		<edge from-layer="21" from-port="1" to-layer="27" to-port="0" />
		<edge from-layer="21" from-port="1" to-layer="22" to-port="0" />
		<edge from-layer="22" from-port="1" to-layer="23" to-port="0" />
		<edge from-layer="23" from-port="1" to-layer="24" to-port="0" />
		<edge from-layer="24" from-port="1" to-layer="25" to-port="0" />
		<edge from-layer="25" from-port="1" to-layer="26" to-port="0" />
		<edge from-layer="26" from-port="1" to-layer="27" to-port="1" />
		<edge from-layer="27" from-port="2" to-layer="33" to-port="0" />
		<edge from-layer="27" from-port="2" to-layer="28" to-port="0" />
		<edge from-layer="28" from-port="1" to-layer="29" to-port="0" />
		<edge from-layer="29" from-port="1" to-layer="30" to-port="0" />
		<edge from-layer="30" from-port="1" to-layer="31" to-port="0" />
		<edge from-layer="31" from-port="1" to-layer="32" to-port="0" />
		<edge from-layer="32" from-port="1" to-layer="33" to-port="1" />
		<edge from-layer="33" from-port="2" to-layer="34" to-port="0" />
		<edge from-layer="34" from-port="1" to-layer="35" to-port="0" />
		<edge from-layer="35" from-port="1" to-layer="36" to-port="0" />
		<edge from-layer="36" from-port="1" to-layer="37" to-port="0" />
		<edge from-layer="37" from-port="1" to-layer="38" to-port="0" />
		<edge from-layer="38" from-port="1" to-layer="44" to-port="0" />
		<edge from-layer="38" from-port="1" to-layer="39" to-port="0" />
		<edge from-layer="39" from-port="1" to-layer="40" to-port="0" />
		<edge from-layer="40" from-port="1" to-layer="41" to-port="0" />
		<edge from-layer="41" from-port="1" to-layer="42" to-port="0" />
		<edge from-layer="42" from-port="1" to-layer="43" to-port="0" />
		<edge from-layer="43" from-port="1" to-layer="44" to-port="1" />
		<edge from-layer="44" from-port="2" to-layer="50" to-port="0" />
		<edge from-layer="44" from-port="2" to-layer="45" to-port="0" />
		<edge from-layer="45" from-port="1" to-layer="46" to-port="0" />
		<edge from-layer="46" from-port="1" to-layer="47" to-port="0" />
		<edge from-layer="47" from-port="1" to-layer="48" to-port="0" />
		<edge from-layer="48" from-port="1" to-layer="49" to-port="0" />
		<edge from-layer="49" from-port="1" to-layer="50" to-port="1" />
		<edge from-layer="50" from-port="2" to-layer="56" to-port="0" />
		<edge from-layer="50" from-port="2" to-layer="51" to-port="0" />
		<edge from-layer="51" from-port="1" to-layer="52" to-port="0" />
		<edge from-layer="52" from-port="1" to-layer="53" to-port="0" />
		<edge from-layer="53" from-port="1" to-layer="54" to-port="0" />
		<edge from-layer="54" from-port="1" to-layer="55" to-port="0" />
		<edge from-layer="55" from-port="1" to-layer="56" to-port="1" />
		<edge from-layer="56" from-port="2" to-layer="57" to-port="0" />
		<edge from-layer="57" from-port="1" to-layer="58" to-port="0" />
		<edge from-layer="58" from-port="1" to-layer="59" to-port="0" />
		<edge from-layer="59" from-port="1" to-layer="60" to-port="0" />
		<edge from-layer="60" from-port="1" to-layer="61" to-port="0" />
		<edge from-layer="61" from-port="1" to-layer="67" to-port="0" />
		<edge from-layer="61" from-port="1" to-layer="62" to-port="0" />
		<edge from-layer="62" from-port="1" to-layer="63" to-port="0" />
		<edge from-layer="63" from-port="1" to-layer="64" to-port="0" />
		<edge from-layer="64" from-port="1" to-layer="65" to-port="0" />
		<edge from-layer="65" from-port="1" to-layer="66" to-port="0" />
		<edge from-layer="66" from-port="1" to-layer="67" to-port="1" />
		<edge from-layer="67" from-port="2" to-layer="73" to-port="0" />
		<edge from-layer="67" from-port="2" to-layer="68" to-port="0" />
		<edge from-layer="68" from-port="1" to-layer="69" to-port="0" />
		<edge from-layer="69" from-port="1" to-layer="70" to-port="0" />
		<edge from-layer="70" from-port="1" to-layer="71" to-port="0" />
		<edge from-layer="71" from-port="1" to-layer="72" to-port="0" />
		<edge from-layer="72" from-port="1" to-layer="73" to-port="1" />
		<edge from-layer="73" from-port="2" to-layer="74" to-port="0" />
		<edge from-layer="74" from-port="1" to-layer="75" to-port="0" />
		<edge from-layer="75" from-port="1" to-layer="76" to-port="0" />
		<edge from-layer="76" from-port="1" to-layer="77" to-port="0" />
		<edge from-layer="77" from-port="1" to-layer="78" to-port="0" />
		<edge from-layer="78" from-port="1" to-layer="84" to-port="0" />
		<edge from-layer="78" from-port="1" to-layer="79" to-port="0" />
		<edge from-layer="79" from-port="1" to-layer="80" to-port="0" />
		<edge from-layer="80" from-port="1" to-layer="81" to-port="0" />
		<edge from-layer="81" from-port="1" to-layer="82" to-port="0" />
		<edge from-layer="82" from-port="1" to-layer="83" to-port="0" />
		<edge from-layer="83" from-port="1" to-layer="84" to-port="1" />
		<edge from-layer="84" from-port="2" to-layer="90" to-port="0" />
		<edge from-layer="84" from-port="2" to-layer="85" to-port="0" />
		<edge from-layer="85" from-port="1" to-layer="86" to-port="0" />
		<edge from-layer="86" from-port="1" to-layer="87" to-port="0" />
		<edge from-layer="87" from-port="1" to-layer="88" to-port="0" />
		<edge from-layer="88" from-port="1" to-layer="89" to-port="0" />
		<edge from-layer="89" from-port="1" to-layer="90" to-port="1" />
		<edge from-layer="90" from-port="2" to-layer="91" to-port="0" />
		<edge from-layer="91" from-port="1" to-layer="92" to-port="0" />
		<edge from-layer="92" from-port="1" to-layer="93" to-port="0" />
		<edge from-layer="93" from-port="1" to-layer="94" to-port="0" />
		<edge from-layer="94" from-port="1" to-layer="95" to-port="0" />
		<edge from-layer="95" from-port="1" to-layer="96" to-port="0" />
		<edge from-layer="96" from-port="1" to-layer="97" to-port="0" />
		<edge from-layer="97" from-port="1" to-layer="100" to-port="0" />
		<edge from-layer="98" from-port="0" to-layer="102" to-port="1" />
		<edge from-layer="99" from-port="0" to-layer="100" to-port="1" />
		<edge from-layer="100" from-port="2" to-layer="101" to-port="0" />
		<edge from-layer="101" from-port="1" to-layer="102" to-port="0" />
		<edge from-layer="102" from-port="2" to-layer="103" to-port="0" />
		<edge from-layer="103" from-port="1" to-layer="104" to-port="0" />
	</edges>
	<statistics>
		<layer>
			<name>Conv1/Conv2D</name>
			<min>… -5.497917</min>
			<max>… 6.469678</max>
		</layer>
		<layer>
			<name>Conv1_relu/Relu6</name>
			<min>… 0.000000</min>
			<max>… 6.000000</max>
		</layer>
		<layer>
			<name>Conv_1/Conv2D</name>
			<min>… -1.721783</min>
			<max>… 0.370157</max>
		</layer>
		<layer>
			<name>Logits/MatMul</name>
			<min>… -44.631454</min>
			<max>… 0.000000</max>
		</layer>
		<layer>
			<name>Logits/Softmax</name>
			<min>… 0.000000</min>
			<max>… 0.000001</max>
		</layer>
		<layer>
			<name>block_10_depthwise/depthwise</name>
			<min>… -2.139179</min>
			<max>… 1.349313</max>
		</layer>
		<layer>
			<name>block_10_depthwise_relu/Relu6</name>
			<min>… 0.000000</min>
			<max>… 1.349313</max>
		</layer>
		<layer>
			<name>block_10_expand/Conv2D</name>
			<min>… -3.679434</min>
			<max>… 2.812821</max>
		</layer>
		<layer>
			<name>block_10_expand_relu/Relu6</name>
			<min>… 0.000000</min>
			<max>… 2.812821</max>
		</layer>
		<layer>
			<name>block_10_project/Conv2D</name>
			<min>… -5.968151</min>
			<max>… 3.894940</max>
		</layer>
		<layer>
			<name>block_11_add/add</name>
			<min>… -5.805895</min>
			<max>… 4.759868</max>
		</layer>
		<layer>
			<name>block_11_depthwise/depthwise</name>
			<min>… -2.971353</min>
			<max>… 6.024394</max>
		</layer>
		<layer>
			<name>block_11_depthwise_relu/Relu6</name>
			<min>… 0.000000</min>
			<max>… 6.000000</max>
		</layer>
		<layer>
			<name>block_11_expand/Conv2D</name>
			<min>… -1.959441</min>
			<max>… 0.849131</max>
		</layer>
		<layer>
			<name>block_11_expand_relu/Relu6</name>
			<min>… 0.000000</min>
			<max>… 0.849131</max>
		</layer>
		<layer>
			<name>block_11_project/Conv2D</name>
			<min>… -1.873310</min>
			<max>… 2.002034</max>
		</layer>
		<layer>
			<name>block_12_add/add</name>
			<min>… -5.820315</min>
			<max>… 5.395750</max>
		</layer>
		<layer>
			<name>block_12_depthwise/depthwise</name>
			<min>… -5.605246</min>
			<max>… 6.453416</max>
		</layer>
		<layer>
			<name>block_12_depthwise_relu/Relu6</name>
			<min>… 0.000000</min>
			<max>… 6.000000</max>
		</layer>
		<layer>
			<name>block_12_expand/Conv2D</name>
			<min>… -1.920685</min>
			<max>… 3.596274</max>
		</layer>
		<layer>
			<name>block_12_expand_relu/Relu6</name>
			<min>… 0.000000</min>
			<max>… 3.596274</max>
		</layer>
		<layer>
			<name>block_12_project/Conv2D</name>
			<min>… -0.949357</min>
			<max>… 1.169532</max>
		</layer>
		<layer>
			<name>block_13_depthwise/depthwise</name>
			<min>… -0.618682</min>
			<max>… 6.086488</max>
		</layer>
		<layer>
			<name>block_13_depthwise_relu/Relu6</name>
			<min>… 0.000000</min>
			<max>… 6.000000</max>
		</layer>
		<layer>
			<name>block_13_expand/Conv2D</name>
			<min>… -2.592907</min>
			<max>… 2.964598</max>
		</layer>
		<layer>
			<name>block_13_expand_relu/Relu6</name>
			<min>… 0.000000</min>
			<max>… 2.964598</max>
		</layer>
		<layer>
			<name>block_13_project/Conv2D</name>
			<min>… -3.095402</min>
			<max>… 5.871572</max>
		</layer>
		<layer>
			<name>block_14_add/add</name>
			<min>… -3.407574</min>
			<max>… 5.989780</max>
		</layer>
		<layer>
			<name>block_14_depthwise/depthwise</name>
			<min>… -1.801439</min>
			<max>… 1.717275</max>
		</layer>
		<layer>
			<name>block_14_depthwise_relu/Relu6</name>
			<min>… 0.000000</min>
			<max>… 1.717275</max>
		</layer>
		<layer>
			<name>block_14_expand/Conv2D</name>
			<min>… -2.253431</min>
			<max>… 4.229637</max>
		</layer>
		<layer>
			<name>block_14_expand_relu/Relu6</name>
			<min>… 0.000000</min>
			<max>… 4.229637</max>
		</layer>
		<layer>
			<name>block_14_project/Conv2D</name>
			<min>… -1.085580</min>
			<max>… 0.270386</max>
		</layer>
		<layer>
			<name>block_15_add/add</name>
			<min>… -3.129604</min>
			<max>… 5.962726</max>
		</layer>
		<layer>
			<name>block_15_depthwise/depthwise</name>
			<min>… -0.556532</min>
			<max>… 0.000000</max>
		</layer>
		<layer>
			<name>block_15_depthwise_relu/Relu6</name>
			<min>… 0.000000</min>
			<max>… 0.000000</max>
		</layer>
		<layer>
			<name>block_15_expand/Conv2D</name>
			<min>… -1.767647</min>
			<max>… 0.368744</max>
		</layer>
		<layer>
			<name>block_15_expand_relu/Relu6</name>
			<min>… 0.000000</min>
			<max>… 0.368744</max>
		</layer>
		<layer>
			<name>block_15_project/Conv2D</name>
			<min>… -0.468131</min>
			<max>… 0.891713</max>
		</layer>
		<layer>
			<name>block_16_depthwise/depthwise</name>
			<min>… -8.030667</min>
			<max>… 4.670761</max>
		</layer>
		<layer>
			<name>block_16_depthwise_relu/Relu6</name>
			<min>… 0.000000</min>
			<max>… 4.670761</max>
		</layer>
		<layer>
			<name>block_16_expand/Conv2D</name>
			<min>… -1.341235</min>
			<max>… 4.977052</max>
		</layer>
		<layer>
			<name>block_16_expand_relu/Relu6</name>
			<min>… 0.000000</min>
			<max>… 4.977052</max>
		</layer>
		<layer>
			<name>block_16_project/Conv2D</name>
			<min>… -1.753996</min>
			<max>… 3.536848</max>
		</layer>
		<layer>
			<name>block_1_depthwise/depthwise</name>
			<min>… -9.913785</min>
			<max>… 2.899290</max>
		</layer>
		<layer>
			<name>block_1_depthwise_relu/Relu6</name>
			<min>… 0.000000</min>
			<max>… 2.899290</max>
		</layer>
		<layer>
			<name>block_1_expand/Conv2D</name>
			<min>… -6.490226</min>
			<max>… 6.534701</max>
		</layer>
		<layer>
			<name>block_1_expand_relu/Relu6</name>
			<min>… 0.000000</min>
			<max>… 6.000000</max>
		</layer>
		<layer>
			<name>block_1_project/Conv2D</name>
			<min>… -6.653750</min>
			<max>… 4.340611</max>
		</layer>
		<layer>
			<name>block_2_add/add</name>
			<min>… -8.953359</min>
			<max>… 11.055006</max>
		</layer>
		<layer>
			<name>block_2_depthwise/depthwise</name>
			<min>… -1.719348</min>
			<max>… 5.292436</max>
		</layer>
		<layer>
			<name>block_2_depthwise_relu/Relu6</name>
			<min>… 0.000000</min>
			<max>… 5.292436</max>
		</layer>
		<layer>
			<name>block_2_expand/Conv2D</name>
			<min>… -4.378834</min>
			<max>… 3.336042</max>
		</layer>
		<layer>
			<name>block_2_expand_relu/Relu6</name>
			<min>… 0.000000</min>
			<max>… 3.336042</max>
		</layer>
		<layer>
			<name>block_2_project/Conv2D</name>
			<min>… -5.915386</min>
			<max>… 7.982033</max>
		</layer>
		<layer>
			<name>block_3_depthwise/depthwise</name>
			<min>… -5.808909</min>
			<max>… 1.815733</max>
		</layer>
		<layer>
			<name>block_3_depthwise_relu/Relu6</name>
			<min>… 0.000000</min>
			<max>… 1.815733</max>
		</layer>
		<layer>
			<name>block_3_expand/Conv2D</name>
			<min>… -3.055525</min>
			<max>… 4.763853</max>
		</layer>
		<layer>
			<name>block_3_expand_relu/Relu6</name>
			<min>… 0.000000</min>
			<max>… 4.763853</max>
		</layer>
		<layer>
			<name>block_3_project/Conv2D</name>
			<min>… -5.427027</min>
			<max>… 6.907789</max>
		</layer>
		<layer>
			<name>block_4_add/add</name>
			<min>… -7.913424</min>
			<max>… 9.112812</max>
		</layer>
		<layer>
			<name>block_4_depthwise/depthwise</name>
			<min>… -6.373904</min>
			<max>… 3.565830</max>
		</layer>
		<layer>
			<name>block_4_depthwise_relu/Relu6</name>
			<min>… 0.000000</min>
			<max>… 3.565830</max>
		</layer>
		<layer>
			<name>block_4_expand/Conv2D</name>
			<min>… -3.601067</min>
			<max>… 3.610718</max>
		</layer>
		<layer>
			<name>block_4_expand_relu/Relu6</name>
			<min>… 0.000000</min>
			<max>… 3.610718</max>
		</layer>
		<layer>
			<name>block_4_project/Conv2D</name>
			<min>… -5.301193</min>
			<max>… 4.082144</max>
		</layer>
		<layer>
			<name>block_5_add/add</name>
			<min>… -10.034362</min>
			<max>… 10.038986</max>
		</layer>
		<layer>
			<name>block_5_depthwise/depthwise</name>
			<min>… -4.752716</min>
			<max>… 4.449269</max>
		</layer>
		<layer>
			<name>block_5_depthwise_relu/Relu6</name>
			<min>… 0.000000</min>
			<max>… 4.449269</max>
		</layer>
		<layer>
			<name>block_5_expand/Conv2D</name>
			<min>… -7.300919</min>
			<max>… 4.799222</max>
		</layer>
		<layer>
			<name>block_5_expand_relu/Relu6</name>
			<min>… 0.000000</min>
			<max>… 4.799222</max>
		</layer>
		<layer>
			<name>block_5_project/Conv2D</name>
			<min>… -5.794213</min>
			<max>… 3.237746</max>
		</layer>
		<layer>
			<name>block_6_depthwise/depthwise</name>
			<min>… -6.945976</min>
			<max>… 1.296588</max>
		</layer>
		<layer>
			<name>block_6_depthwise_relu/Relu6</name>
			<min>… 0.000000</min>
			<max>… 1.296588</max>
		</layer>
		<layer>
			<name>block_6_expand/Conv2D</name>
			<min>… -7.724288</min>
			<max>… 9.679053</max>
		</layer>
		<layer>
			<name>block_6_expand_relu/Relu6</name>
			<min>… 0.000000</min>
			<max>… 6.000000</max>
		</layer>
		<layer>
			<name>block_6_project/Conv2D</name>
			<min>… -5.763296</min>
			<max>… 3.956084</max>
		</layer>
		<layer>
			<name>block_7_add/add</name>
			<min>… -6.297625</min>
			<max>… 4.965112</max>
		</layer>
		<layer>
			<name>block_7_depthwise/depthwise</name>
			<min>… -3.090717</min>
			<max>… 1.772276</max>
		</layer>
		<layer>
			<name>block_7_depthwise_relu/Relu6</name>
			<min>… 0.000000</min>
			<max>… 1.772276</max>
		</layer>
		<layer>
			<name>block_7_expand/Conv2D</name>
			<min>… -5.435274</min>
			<max>… 2.675507</max>
		</layer>
		<layer>
			<name>block_7_expand_relu/Relu6</name>
			<min>… 0.000000</min>
			<max>… 2.675507</max>
		</layer>
		<layer>
			<name>block_7_project/Conv2D</name>
			<min>… -2.482923</min>
			<max>… 1.665720</max>
		</layer>
		<layer>
			<name>block_8_add/add</name>
			<min>… -8.714907</min>
			<max>… 6.629584</max>
		</layer>
		<layer>
			<name>block_8_depthwise/depthwise</name>
			<min>… -1.698292</min>
			<max>… 1.197486</max>
		</layer>
		<layer>
			<name>block_8_depthwise_relu/Relu6</name>
			<min>… 0.000000</min>
			<max>… 1.197486</max>
		</layer>
		<layer>
			<name>block_8_expand/Conv2D</name>
			<min>… -3.977132</min>
			<max>… 2.967675</max>
		</layer>
		<layer>
			<name>block_8_expand_relu/Relu6</name>
			<min>… 0.000000</min>
			<max>… 2.967675</max>
		</layer>
		<layer>
			<name>block_8_project/Conv2D</name>
			<min>… -3.475666</min>
			<max>… 2.947466</max>
		</layer>
		<layer>
			<name>block_9_add/add</name>
			<min>… -8.840024</min>
			<max>… 6.529456</max>
		</layer>
		<layer>
			<name>block_9_depthwise/depthwise</name>
			<min>… -2.754172</min>
			<max>… 2.832647</max>
		</layer>
		<layer>
			<name>block_9_depthwise_relu/Relu6</name>
			<min>… 0.000000</min>
			<max>… 2.832647</max>
		</layer>
		<layer>
			<name>block_9_expand/Conv2D</name>
			<min>… -3.599419</min>
			<max>… 3.021672</max>
		</layer>
		<layer>
			<name>block_9_expand_relu/Relu6</name>
			<min>… 0.000000</min>
			<max>… 3.021672</max>
		</layer>
		<layer>
			<name>block_9_project/Conv2D</name>
			<min>… -3.085598</min>
			<max>… 2.150859</max>
		</layer>
		<layer>
			<name>expanded_conv_depthwise/depthwise</name>
			<min>… -6.630520</min>
			<max>… 5.683639</max>
		</layer>
		<layer>
			<name>expanded_conv_depthwise_relu/Relu6</name>
			<min>… 0.000000</min>
			<max>… 5.683639</max>
		</layer>
		<layer>
			<name>expanded_conv_project/Conv2D</name>
			<min>-8.659509, -10.008790, -6.456581, -4.302042, -6.167021, -6.883658, -5.889542, -6.306228, -5.935494, -6.056539, -7.920630, -5.583265, -4.935652, -6.718074, -3.779270, -9.579392</min>
			<max>4.093516, 4.937610, 6.889015, 4.873792, 6.493404, 3.912422, 6.262848, 2.998631, 2.813349, 5.900114, 10.321133, 1.674558, 6.227727, 3.773160, 6.081314, 5.798810</max>
		</layer>
		<layer>
			<name>global_average_pooling2d/Mean/FinalReshape</name>
			<min>… 0.000000</min>
			<max>… 0.092539</max>
		</layer>
		<layer>
			<name>global_average_pooling2d/Mean/Pool</name>
			<min>… 0.000000</min>
			<max>… 0.092539</max>
		</layer>
		<layer>
			<name>global_average_pooling2d/Mean/Reshape</name>
			<min>… 0.000000</min>
			<max>… 0.370157</max>
		</layer>
		<layer>
			<name>input_1</name>
			<min>0.000000, 0.000000, 0.000000</min>
			<max>255.000000, 255.000000, 255.000000</max>
		</layer>
		<layer>
			<name>out_relu/Relu6</name>
			<min>… 0.000000</min>
			<max>… 0.370157</max>
		</layer>
	</statistics>
</net>
